Hyperparameter_optimization_Proyect/Model_Train/mlp_psd_model_base.pt (torch, 694489 bytes, 6 tensors)

net.0.weight f4 [128, 1024]
0	0xbc32890d	-0.010896933
1	0x3a936ba6	0.0011247292
2	0x3a9e3e5e	0.001207303
3	0xbc3009a2	-0.010744484
4	0x3c1c08b6	0.009523561
5	0xbcd1007b	-0.025512924
6	0xbcb35143	-0.021889335
7	0x3ce692e5	0.028146217
8	0xbd0de312	-0.03464038
9	0xbd13b0d1	-0.036057297
10	0x3cacd843	0.021099215
11	0x3ca9e104	0.020737179
12	0x3bd0da51	0.0063736816
13	0xb7bfbf20	-2.2857974e-05
14	0xbc2ecaf2	-0.010668503
15	0xbcc4e243	-0.024033671
16	0xbc8ac2e3	-0.016938632
17	0x3c2f9a08	0.010717876
18	0x3c854826	0.016269755
19	0xbc93c81b	-0.018039754
20	0xbc91c80c	-0.017795585
21	0xbcfcb3d4	-0.030847467
22	0xbb920ab2	-0.0044568414
23	0x3c97919f	0.018502055
24	0xbbfd4047	-0.0077286097
25	0x3cebec2b	0.028799137
26	0x3c5c6b65	0.013453339
27	0xbbd61668	-0.0065334328
28	0x3cf60276	0.03003047
29	0x3c714b04	0.014727358
30	0xba0f59d1	-0.0005468401
31	0xbc7e7d98	-0.015532874
32	0x3b38afc5	0.0028180939
33	0x3b0db3a8	0.0021621976
34	0x3ceb4c1b	0.028722813
35	0x3c706edf	0.014674871
36	0x3c1b4aff	0.00947833
37	0xbcb17eb4	-0.021666862
38	0xbcdc3c9e	-0.026884373
39	0xbcf108a0	-0.029423058
40	0xbc9585aa	-0.018252213
41	0xbc46836e	-0.012116296
42	0x3d24d897	0.04024562
43	0xbc7d40a3	-0.015457305
44	0x3c92366e	0.01784822
45	0xbce877c7	-0.028377427
46	0xbb659838	-0.0035033356
47	0x3ccf3e91	0.025298389
48	0x3c4b6a9b	0.012415553
49	0xbaadf256	-0.0013271074
50	0x3ceefa13	0.029171979
51	0x3c46c5c1	0.012132109
52	0x3c9e51fc	0.019326203
53	0xbc04b685	-0.008100157
54	0x3cb8fe85	0.022582302
55	0xbcf4b3f8	-0.029870972
56	0xbc3d9481	-0.011571051
57	0xbd0820fc	-0.03323458
58	0xbc4b3cf5	-0.01240467
59	0xbcb971a8	-0.022637203
60	0xbcc711b5	-0.024300436
61	0xbbb63ea2	-0.0055616656
62	0x3b152331	0.0022756571
63	0x3b4a9300	0.0030910373
64	0xbcd7323e	-0.026269075
65	0x3c1e7092	0.009670394
66	0xb79a674a	-1.8406328e-05
67	0x3cac6517	0.021044297
68	0x3ba801a6	0.0051271496
69	0x3c9d46a5	0.019198725
70	0xbbd2b7a2	-0.006430582
71	0xbbe43da9	-0.0069653583
72	0xbc05d885	-0.008169298
73	0xbc9974f6	-0.01873253
74	0xbcfd789f	-0.030941306
75	0xbb0f58d5	-0.0021873016
76	0x3cfa0227	0.030518604
77	0x3b74831e	0.0037309597
78	0xbd18d124	-0.037308827
79	0xbcbaa522	-0.02278382
80	0x3c3318ea	0.010931233
81	0x3cf4bf9b	0.02987652
82	0xbbe1f332	-0.006895446
83	0x39662f4a	0.00021952126
84	0x3c213535	0.009839346
85	0xbc2fe3a8	-0.01073543
86	0xbcbad9f6	-0.02280901
87	0x3c0889e0	0.008333653
88	0xbc917056	-0.017753761
89	0x3c4a95d0	0.01236482
90	0x3c399416	0.01132681
91	0xbc14df97	-0.009086511
92	0x3b3c8dc8	0.0028771032
93	0xbc52d98c	-0.01286925
94	0xbcf37f9a	-0.029723931
95	0x3b8bd3dc	0.004267199
96	0x3ca97af0	0.020688504
97	0xbd3122ef	-0.043246206
98	0xbbe37821	-0.0069418107
99	0xbbf50a10	-0.007478006
100	0xbbf790af	-0.0075550894
101	0xbbe3430b	-0.0069354824
102	0x3bee657d	0.007275282
103	0x3cc180d2	0.023620997
104	0x3c3d15c2	0.011540832
105	0xbb6d9a38	-0.0036255252
106	0xbc9d6fd0	-0.019218355
107	0x3c054c20	0.008135825
108	0x3bcd5ea7	0.006267387
109	0x3ca86c2b	0.020559391
110	0xbd097cf4	-0.03356643
111	0xbccfbe0c	-0.025359176
112	0xbc5b9dd1	-0.013404326
113	0xbc4ea79a	-0.0126132015
114	0xbbdba794	-0.0067033265
115	0xbc8904d1	-0.01672593
116	0x3c7cb6f6	0.015424481
117	0x3be1b621	0.0068881665
118	0x3d0900d5	0.03344806
119	0xbd15df9b	-0.0365902
120	0xbd1982e2	-0.037478335
121	0x3bd6f5db	0.00656007
122	0x3d0e01d8	0.034669727
123	0x3c093cc4	0.008376304
124	0xbb266fec	-0.00253963
125	0xbc9837f9	-0.018581377
126	0xbc49e15a	-0.012321794
127	0x3ca2ca38	0.019871816
128	0x3c4054e8	0.011738993
129	0x3c1f28ef	0.009714349
130	0x3cad32d9	0.02114241
131	0x3bb3ec1c	0.005490793
132	0x3c9541ad	0.018219793
133	0xbbea12a5	-0.007143336
134	0x3c234f7a	0.009967679
135	0xbc3ae283	-0.011406544
136	0xbc2931b2	-0.01032679
137	0x3c6fc47c	0.014634248
138	0x3c1a68eb	0.009424428
139	0xbc859288	-0.016305223
140	0x3c912aa0	0.01772052
141	0xbc9b3e8a	-0.01895072
142	0x3bbb5591	0.0057169874
143	0xbd0a63bc	-0.03378652
144	0x3c1c5e2d	0.009543938
145	0x3cf32bd6	0.029683989
146	0xbb97fcb3	-0.0046382784
147	0xbcb79305	-0.022408972
148	0xbd0340b8	-0.032044142
149	0x3c1a201a	0.009407068
150	0xbc7886f1	-0.015168891
151	0xbcd8c37f	-0.026460407
152	0x3c520a71	0.012819872
153	0xbd26a07c	-0.040680394
154	0xbb365de6	-0.0027826964
155	0xbd5088e0	-0.050911784
156	0xbca6cfb0	-0.020362705
157	0xbc0fbacd	-0.008772564
158	0xbcca1e26	-0.024672579
159	0xbb32af0c	-0.002726498
160	0xbcb033da	-0.0215091
161	0x3c09d478	0.008412473
162	0xbd21e7de	-0.039527766
163	0x3ccd475e	0.025058445
164	0xbc0375b0	-0.008023664
165	0x3b86e35a	0.004116458
166	0x3c9996a7	0.018748594
167	0x3c2d40b7	0.010574511
168	0xbc4facd5	-0.012675484
169	0x3c53c340	0.012924969
170	0xbb86516a	-0.004099061
171	0x3c1c7020	0.009548217
172	0x3b73e2c8	0.003721403
173	0x3ba32ee3	0.0049799546
174	0xbc94656e	-0.018114772
175	0xbb4ad4e5	-0.003094965
176	0xbb85781c	-0.004073156
177	0xbc9c1354	-0.019052185
178	0xbc8792af	-0.016549436
179	0xbc755b50	-0.014975384
180	0xba10b956	-0.0005520781
181	0xbab4fbe8	-0.0013807984
182	0xbc95b9be	-0.018277045
183	0x3c3f3c0a	0.011672029
184	0x3ce31fdf	0.027725158
185	0xbd057d7f	-0.032590386
186	0xbb7b3815	-0.0038332988
187	0xbbd0d95b	-0.006373567
188	0xbc948290	-0.018128663
189	0xbc8ad632	-0.01694784
190	0x3bb84e3e	0.0056245616
191	0xbd08fc22	-0.033443578
192	0x397a6a0b	0.00023881362
193	0xbcb45475	-0.022012929
194	0x3d1e1272	0.03859181
195	0xbcb9bdcf	-0.022673516
196	0x3c1e5e83	0.009666088
197	0xbcd1b818	-0.025600478
198	0xbcc8fa56	-0.024533432
199	0xbc20c583	-0.009812715
200	0xbc9de809	-0.019275682
201	0x3c45e43d	0.012078342
202	0xbc93a755	-0.018024126
203	0xbcd46cbd	-0.025930757
204	0xbd07f5ee	-0.03319352
205	0xbb830d89	-0.0039994163
206	0x3c6018d7	0.013677797
207	0xbcc747f1	-0.024326297
208	0xbc01e402	-0.007927896
209	0x3cd1c944	0.025608666
210	0xbce7276a	-0.028217036
211	0xbc498bef	-0.012301429
212	0x3c8a6cb9	0.016897546
213	0x3b1807fe	0.0023198123
214	0x3b7c819e	0.0038529406
215	0xbb05d054	-0.0020418363
216	0xbcd477a7	-0.025935961
217	0xbd13301c	-0.035934553
218	0x3ca5bb22	0.020230833
219	0xbc18812f	-0.0093081435
220	0xbbdfc262	-0.006828592
221	0xbc4b33f6	-0.012402525
222	0xbbe37f10	-0.0069426373
223	0x3c00ddd2	0.007865386
224	0x3c198e7b	0.009372349
225	0xbcdd238b	-0.026994487
226	0xbd26aa78	-0.040689915
227	0xbc87312e	-0.016502943
228	0x3cba7c0e	0.022764232
229	0xbc708862	-0.014680954
230	0xbca4145d	-0.020029241
231	0xbc85eeac	-0.01634916
232	0xbcc03058	-0.023460552
233	0xbd1852fb	-0.03718851
234	0xbd148cd3	-0.036267113
235	0x39abcf55	0.00032770136
236	0xbc20e6d1	-0.009820656
237	0xbb974a7a	-0.0046170326
238	0x3bc14d21	0.005899087
239	0xbc909ff1	-0.017654391
240	0x3ca97679	0.020686375
241	0xbc2c2a83	-0.010508182
242	0xbc0776c0	-0.008268058
243	0xbb2660fd	-0.00253874
244	0x3c88f77b	0.01671957
245	0xbc6ccc20	-0.014452964
246	0xbcc02e7e	-0.02345967
247	0x3b7d7685	0.003867538
248	0xbce8bca0	-0.028410256
249	0xbcef2e63	-0.029196924
250	0x3bcbbcff	0.0062175984
251	0x3d0c0141	0.034180883
252	0xbcba1d05	-0.022718916
253	0xbcff21d6	-0.031144064
254	0xbc648f4a	-0.013950178
255	0x3cdb0518	0.026735827

net.0.bias f4 [128]
0	0xbcba6933	-0.022755241
1	0xbdce9979	-0.10087866
2	0x3d5a5696	0.05330523
3	0xbb31c66e	-0.002712633
4	0xbe185223	-0.14875083
5	0x3cc1e5e8	0.023669198
6	0x3da92440	0.08258867
7	0xbbaca294	-0.0052684043
8	0xbb538c88	-0.0032279808
9	0x3d277189	0.04087976
10	0xbdfd9125	-0.123812
11	0x3d31aa07	0.04337504
12	0xbe07adb0	-0.1324985
13	0xbe07e32c	-0.13270253
14	0x3d2cd92b	0.042199295
15	0xbde04889	-0.10951335
16	0xbdf205bc	-0.118175
17	0x3c87b305	0.016564855
18	0xbd72511d	-0.059159387
19	0x3d35f7f8	0.044425935
20	0xbca9e04b	-0.020736834
21	0x3ce9e7b2	0.028552864
22	0xbddafb20	-0.106924295
23	0xbda087d1	-0.07838405
24	0x3cc6bea7	0.024260832
25	0x3cbba1cc	0.0229043
26	0xbdc5832c	-0.0964416
27	0x3c931c93	0.017957961
28	0x3d8d36f7	0.06895249
29	0x3d7ddea8	0.06197992
30	0x3d7076bd	0.058706988
31	0xbdb1dad8	-0.08684319
32	0x3db68221	0.08911539
33	0x3bcfb5eb	0.006338825
34	0xbd82989f	-0.063767664
35	0xbdfcc51c	-0.12342283
36	0x3d8625bd	0.06550167
37	0x3c3de82a	0.011590997
38	0x3da6a37e	0.081366524
39	0xbdbb73c8	-0.09152943
40	0xbad218e0	-0.0016029142
41	0x3ce1bd00	0.027555943
42	0xbe064ecd	-0.13115998
43	0xbd3d51ca	-0.04622058
44	0x3d2dab40	0.042399645
45	0xbdda0836	-0.10646097
46	0x3dc3c559	0.095591255
47	0xbdba5305	-0.09097866
48	0xbc829773	-0.015941357
49	0x3da0d691	0.07853425
50	0xbe15018c	-0.14551371
51	0xbe328564	-0.17433697
52	0x3b6bf59d	0.0036004551
53	0xbe27abc7	-0.16374122
54	0x3d26d5f4	0.040731385
55	0xbb3bba20	-0.0028644875
56	0x3cf0e299	0.029404925
57	0x3d2aadf2	0.041669793
58	0xbcba2aa6	-0.022725414
59	0x3dc48bad	0.095969535
60	0xbd1d926e	-0.038469724
61	0xbda45c92	-0.08025469
62	0xbc7834d8	-0.015149318
63	0xbd6e2cce	-0.058148198
64	0xbcb05d89	-0.021528976
65	0x3d084d82	0.033277042
66	0xbe2d2587	-0.16908847
67	0xbb9807f6	-0.004639621
68	0xbc816b01	-0.015798094
69	0x3d3b10da	0.045670368
70	0x3cc93738	0.024562463
71	0xbd3bffee	-0.04589837
72	0xbdb597fc	-0.08866879
73	0xbdc4c069	-0.09607012
74	0xbe16c8b3	-0.14724998
75	0xbdfdf074	-0.123993784
76	0xbbb60c8f	-0.0055556963
77	0xbe1780ae	-0.14795181
78	0x3d844e8d	0.06460295
79	0xbdf78547	-0.120859675
80	0x3d8d3f03	0.06896784
81	0xbd0bf975	-0.034173448
82	0xbe3affe5	-0.18261679
83	0xbddf431f	-0.10901474
84	0xbdc5cd5e	-0.09658311
85	0xbde7b04f	-0.11312925
86	0xbdc89c5c	-0.09795448
87	0xbdc8bbc1	-0.09801436
88	0x3ce6eeac	0.02818998
89	0xbc816c13	-0.015798604
90	0xbe13fb83	-0.14451413
91	0x3ccb3cd1	0.024809273
92	0x3d567536	0.052357875
93	0xbda46e95	-0.08028904
94	0x3d1c17a8	0.038108498
95	0xbc2a9776	-0.010412088
96	0x3ce03217	0.027367635
97	0xbda30d5e	-0.07961534
98	0xbe10138e	-0.1406996
99	0x3d950b30	0.072775245
100	0xbd1aee74	-0.037825063
101	0xbb4b0714	-0.003097956
102	0x3d7174ec	0.058949396
103	0xbe0f65ca	-0.14003673
104	0x3c25e121	0.010124476
105	0xbde99eeb	-0.11407264
106	0x3cd6bafb	0.026212206
107	0xbd148127	-0.03625598
108	0xbdc032de	-0.09384702
109	0xbdc10b4c	-0.09425983
110	0x3ca065e4	0.019579835
111	0x3d22a5fa	0.03970907
112	0xbcc3b9cb	-0.023892304
113	0xbe368919	-0.17825736
114	0xbdb9097f	-0.09035014
115	0x3dbdb140	0.092623234
116	0xbcdda3fa	-0.02705573
117	0xbdccd997	-0.100024395
118	0xbe168a04	-0.14701086
119	0x3d100bd7	0.03516754
120	0xbe15fb99	-0.14646758
121	0xbddfc040	-0.10925341
122	0xbd927308	-0.07150847
123	0x3d80cf16	0.062894985
124	0xbd922182	-0.07135297
125	0x3d080ff8	0.033218354
126	0xbd33fffb	-0.043945294
127	0xbe10246e	-0.14076397

net.3.weight f4 [64, 128]
0	0x3cb1e4a2	0.021715466
1	0xbdeb40e0	-0.11486983
2	0xbc0d2c03	-0.00861645
3	0xb941f76a	-0.00018498083
4	0xbc5278cf	-0.012846186
5	0xbdad5517	-0.08463495
6	0x3d31fcb8	0.043453902
7	0xbcf247fc	-0.02957534
8	0x3d07292e	0.032998256
9	0xbdc1e00b	-0.09466561
10	0x3cd88a3d	0.026433105
11	0xbd89b83c	-0.06724593
12	0x3d0603a2	0.03271831
13	0xbdcd49cb	-0.100238405
14	0xbd3ef3d5	-0.046619255
15	0xbbf58067	-0.0074921134
16	0xbdd5e48b	-0.10443982
17	0xbbffd71b	-0.007807625
18	0x3d3e5fbd	0.046478022
19	0xbcc37f0e	-0.023864295
20	0xbca049f9	-0.019566523
21	0x3d35edab	0.04441611
22	0xbdad8afe	-0.08473776
23	0x3d45210f	0.04812723
24	0x3d47d44d	0.04878645
25	0xba6c22a6	-0.00090078486
26	0xbcb97390	-0.022638112
27	0x3d46babd	0.04851793
28	0x3d277a35	0.04088803
29	0x3b456c9c	0.003012455
30	0xbd752f2f	-0.05985945
31	0xbd775560	-0.060384154
32	0xbc0772a4	-0.008267079
33	0xbd377acb	-0.04479484
34	0xbd56ef3f	-0.052474257
35	0x3d1cdb6d	0.0382952
36	0xbd997afd	-0.07494161
37	0x3d850834	0.06495705
38	0xbd64c7e9	-0.05585471
39	0xbc433365	-0.011914109
40	0xbd4a09f0	-0.049325883
41	0x3d6df46a	0.05809442
42	0x3d207b97	0.039180364
43	0xbdb2aae9	-0.08724005
44	0xbd5558a3	-0.052086484
45	0x3d1fecfe	0.039044373
46	0xbcdc68df	-0.026905475
47	0xbd39bb9a	-0.045344926
48	0xbdaace67	-0.083401494
49	0xbc0ae295	-0.008476873
50	0x3ca37896	0.01995496
51	0xbcd7fcaf	-0.026365606
52	0xbc12e91c	-0.00896671
53	0xbd0e6a37	-0.034769263
54	0x3d2a2f92	0.041549273
55	0x3d84623f	0.064640515
56	0xbd004372	-0.03131432
57	0x3d16cb40	0.036814928
58	0x3cfa66f2	0.030566666
59	0xbdb66847	-0.08906608
60	0xbd7edbd6	-0.06222137
61	0x3ce531e4	0.027977891
62	0x3d816c25	0.06319455
63	0xbdb551f1	-0.0885352
64	0xbc0de0fe	-0.008659599
65	0xbd33eaa6	-0.04392495
66	0xbcc11c0b	-0.023572942
67	0xbd48ec92	-0.049053736
68	0xbc33ac8e	-0.010966433
69	0x3c82c797	0.015964312
70	0xbb039f8f	-0.0020084118
71	0x3bedb281	0.0072539453
72	0xbba77491	-0.0051103313
73	0xba25309b	-0.0006301493
74	0xbdc25363	-0.09488561
75	0xbcfa865a	-0.030581642
76	0xbd118628	-0.035528332
77	0xbc82d954	-0.01597277
78	0xbcfa2eec	-0.030539952
79	0xbd87733c	-0.06613776
80	0xbd8b4d11	-0.068018086
81	0xbdad2918	-0.08455104
82	0x3c82998f	0.015942363
83	0xbd1ffd50	-0.039059937
84	0xbde5681b	-0.11201497
85	0xbdc3562c	-0.0953792
86	0xbb478796	-0.0030445806
87	0x3bd8fa7d	0.0066216574
88	0xbda2f753	-0.079573296
89	0xbdcb1c0d	-0.0991746
90	0x3ce466e1	0.027881088
91	0xbde2dbdc	-0.11077091
92	0xbd058936	-0.032601558
93	0x3ce3aaf5	0.02779148
94	0xbd6b0719	-0.057379816
95	0x3cdf27d7	0.027240677
96	0x3d6e309e	0.058151834
97	0xbd3c18eb	-0.0459222
98	0xbdc085c3	-0.09400513
99	0xbcd1bfab	-0.02560409
100	0xb90d9cb3	-0.00013505183
101	0x3d51c191	0.05120999
102	0x3d7017aa	0.058616318
103	0xbd000cc5	-0.031262178
104	0xbd406e01	-0.046979908
105	0xbba788e1	-0.005112753
106	0xbd0aae27	-0.03385749
107	0xbcd65d77	-0.026167614
108	0xbdc83328	-0.09775382
109	0x3d8a4744	0.06751874
110	0x3b05fc2f	0.0020444503
111	0xbd87a598	-0.066233814
112	0xbd9d4b73	-0.076804064
113	0x3d10399b	0.035211187
114	0x3cf8b859	0.030361341
115	0x39277499	0.00015969797
116	0xbd22bbf7	-0.03973004
117	0xbde50a68	-0.111836255
118	0xbd895cf4	-0.067071825
119	0x3cd34620	0.025790274
120	0x3c1b353d	0.009473142
121	0xbda7d5fa	-0.0819511
122	0x3d26093c	0.04053615
123	0xbc10d111	-0.008838908
124	0x3d78b85d	0.060722698
125	0xbd0d676d	-0.034522463
126	0x3c9a78af	0.018856375
127	0xbdde1b95	-0.108451046
128	0x3d67c397	0.056583013
129	0xbd04a13e	-0.032380335
130	0x3cebebc8	0.028798953
131	0xbbf06ead	-0.0073374123
132	0xbd8bdb08	-0.06828886
133	0xbc98fa2e	-0.018673982
134	0xbca1cbed	-0.01975056
135	0xbd21283b	-0.039345007
136	0x3d078712	0.033087797
137	0xbdc39278	-0.09549421
138	0x3d2a1f8a	0.041533984
139	0x3d382117	0.044953432
140	0xbcc4624d	-0.023972655
141	0x3d9ac183	0.07556441
142	0xbd2720ff	-0.040802952
143	0xbd98e3e5	-0.074653424
144	0x3d61565c	0.055014
145	0xbd9f2ef2	-0.07772626
146	0x3c89bb22	0.016812865
147	0xbdad0770	-0.08448684
148	0x3d050889	0.032478843
149	0x3b786e38	0.0037907492
150	0x3d087dd5	0.033323128
151	0xbbfc5c68	-0.0077014454
152	0xbcec3771	-0.02883503
153	0xbd339976	-0.043847524
154	0x3d2822c9	0.0410488
155	0xba3b101b	-0.0007135884
156	0xbda01111	-0.07815755
157	0x3c824637	0.015902622
158	0x3c899ef1	0.016799422
159	0xbd0da911	-0.034585062
160	0xbd82dc4c	-0.063896745
161	0xbd318524	-0.043339863
162	0xbd883cb0	-0.066522
163	0xbd0d6a87	-0.03452542
164	0x3c92f263	0.017937845
165	0x3ce6e529	0.028185444
166	0xbcb5193c	-0.02210676
167	0xbc5fe7b7	-0.013666085
168	0xbcf90f77	-0.030402882
169	0x3d17a9cf	0.037027176
170	0x3c470593	0.012147325
171	0x3d561f3c	0.05227588
172	0xbdcbfa7a	-0.09959884
173	0x3cb2f709	0.021846311
174	0x3a8cf76a	0.0010754887
175	0xbcbedf63	-0.023299878
176	0xbcd21760	-0.025645912
177	0xbc27004b	-0.010192941
178	0xbd1e0a5a	-0.03858409
179	0x3bde4f15	0.0067843297
180	0xbd22888b	-0.039681
181	0x3d1f6d09	0.038922343
182	0x3d81d589	0.06339557
183	0xbc5bf212	-0.013424413
184	0x3d966ba7	0.07344752
185	0x3d86bed3	0.065793656
186	0xbd71651a	-0.05893431
187	0x3d41634b	0.047213834
188	0x3d1e1048	0.038589746
189	0xbdb17b0f	-0.0866605
190	0x3d295fe3	0.04135121
191	0xbd8eb61a	-0.06968327
192	0xbda0bd15	-0.078485645
193	0xbd53a1be	-0.05166792
194	0xbd3948ab	-0.045235317
195	0x3d45a96f	0.048257288
196	0x3d5c7869	0.05382577
197	0x3c5df333	0.013546753
198	0x3d825745	0.063643016
199	0xbcf5e614	-0.030016936
200	0xbd3c6791	-0.045997206
201	0xbd1c4b7e	-0.038157932
202	0xbdb79c2c	-0.08965334
203	0x3d361ad0	0.044459164
204	0x39938bef	0.00028142284
205	0x3d07c19c	0.033143625
206	0xbd359d5d	-0.044339526
207	0xbd6ceee5	-0.057845015
208	0x3d790140	0.060792208
209	0xbb87b7fe	-0.0041418066
210	0xbd47a59c	-0.04874192
211	0xbd13897a	-0.03601978
212	0x3d8c1923	0.06840732
213	0x3d3a06e4	0.045416728
214	0x3d31bc43	0.04339243
215	0xbc5c2c77	-0.013438336
216	0x3c9a92f7	0.018868906
217	0x3c0f31bf	0.008739888
218	0x3b7a55a5	0.003819802
219	0xbb01b90e	-0.001979414
220	0xbd8f64ef	-0.070016734
221	0xbceac4db	-0.028658321
222	0x3c888616	0.0166655
223	0xbd960661	-0.073254354
224	0x3cf1cf25	0.02951772
225	0xbd976080	-0.07391453
226	0x3c0de6b4	0.008660961
227	0xbc85a619	-0.016314553
228	0xbc92fe92	-0.017943654
229	0xbd3c50ed	-0.045975614
230	0xbd99afe6	-0.07504253
231	0xbbe1f296	-0.0068953736
232	0xbd835730	-0.06413114
233	0xbdac75c8	-0.084209025
234	0xbd0a34d1	-0.033741776
235	0xbc0504b3	-0.008118796
236	0xbd6b49c4	-0.057443395
237	0x3d931c84	0.07183173
238	0x3d8a6e12	0.067592755
239	0xbb9ab7b1	-0.0047216048
240	0xbab26bd0	-0.0013612453
241	0x3cbbd6b4	0.022929527
242	0x3d7db656	0.061941467
243	0xbce3e472	-0.027818892
244	0x3d0dabbb	0.034587603
245	0xbd64b665	-0.055838007
246	0x3c4a1351	0.012333707
247	0x3d4a6ded	0.04942124
248	0xbcc5fb6d	-0.02416774
249	0xbd536d00	-0.051617622
250	0x3d8e4005	0.069458045
251	0xbda5d171	-0.080965884
252	0xbd984126	-0.07434301
253	0xbd411681	-0.047140602
254	0xbd83d5e0	-0.06437278
255	0xbb107cc1	-0.0022047015

net.3.bias f4 [64]
0	0xbd66f547	-0.05638626
1	0xbda92e4a	-0.08260782
2	0x3d905fe0	0.07049537
3	0x3e1c39cc	0.15256423
4	0x3e2d2da7	0.16911946
5	0x3d0de7dd	0.03464495
6	0xbd910da9	-0.070826836
7	0xbd18bf7a	-0.03729198
8	0x3e3358b3	0.17514305
9	0x3e3484fd	0.17628856
10	0xbdb0635b	-0.086127006
11	0xbd76d048	-0.060257226
12	0xbd995cc7	-0.07488399
13	0x3e08478d	0.13308544
14	0xbd6ed989	-0.058312926
15	0x3e800706	0.25005358
16	0x3dbf3851	0.093369134
17	0x3db46021	0.08807398
18	0x3e41fec8	0.18944848
19	0x3e685cca	0.22691646
20	0x3e90e363	0.28298482
21	0x3e4486c6	0.19192037
22	0x3d8a63e7	0.06757336
23	0x3df6c7a2	0.12049796
24	0xbc16eed8	-0.009212218
25	0xbd518ae8	-0.051157862
26	0x3df95415	0.121742405
27	0xbd8412a7	-0.0644887
28	0x3e34d059	0.17657603
29	0xbd3f7fca	-0.04675273
30	0xbd9fff96	-0.07812421
31	0x3dad2450	0.08454192
32	0x3ddbf346	0.1073976
33	0x3e6a5c7f	0.22886847
34	0xbde0cd40	-0.10976648
35	0x3d204ed2	0.03913767
36	0x3c16e474	0.009209741
37	0x3c76881e	0.015047101
38	0x3d91e611	0.0712396
39	0x3e7a758e	0.24458906
40	0x3e635f00	0.22204208
41	0x3d6a67e4	0.057227984
42	0x3db686cf	0.089124314
43	0xbdb643a3	-0.088996194
44	0x3dd0b373	0.10190477
45	0x3e89d8c4	0.26923192
46	0x3e3d2bc3	0.18473725
47	0x3e37424d	0.17896385
48	0x3e52eba4	0.20597702
49	0x3e2dcee7	0.16973458
50	0xbdd4ea97	-0.10396307
51	0x3e25164c	0.16121787
52	0xbd955cde	-0.07293104
53	0xbccce9c0	-0.025013804
54	0x3dda54eb	0.10660728
55	0x3ddbae1c	0.10726568
56	0x3e0d3d80	0.13792992
57	0xbac2b17a	-0.0014853918
58	0x3e2b70a3	0.16742186
59	0x3e0951af	0.13410066
60	0xbd5d3184	-0.0540023
61	0x3c62852f	0.013825699
62	0x3e175885	0.14779861
63	0x3e3e122a	0.18561617

net.5.weight f4 [513, 64]
0	0xbb86614b	-0.0041009537
1	0xbcf6fb7e	-0.030149218
2	0x3cd5bab1	0.026089998
3	0xbd0c841e	-0.034305684
4	0x3cfef879	0.03112434
5	0xbc995055	-0.018715063
6	0xbd05f72c	-0.032706425
7	0x3c0f78c3	0.008756819
8	0xbd41ea36	-0.0473425
9	0x3c8e2034	0.01734934
10	0x3dc6cbdb	0.09706851
11	0xbcbb57ed	-0.022869075
12	0xbdccd825	-0.10002164
13	0xbafb41e2	-0.0019169415
14	0xbd11eb7e	-0.035624973
15	0x3dae9d89	0.08526141
16	0x3de7e152	0.11322273
17	0x3c2d8c7d	0.010592577
18	0xbd45b40c	-0.04826741
19	0x3c87a2a3	0.016557043
20	0xbd478cbf	-0.04871821
21	0x3dd94fb1	0.10610903
22	0x3c798943	0.01523048
23	0x3c884dd6	0.016638678
24	0x3d75c9c6	0.06000688
25	0x3dd92ffb	0.10604855
26	0x3cc80061	0.024414243
27	0x3d879c40	0.06621599
28	0xbd3f2321	-0.04666436
29	0xbcb37ad7	-0.02190916
30	0xbe0205c5	-0.12697513
31	0xbbb8bd29	-0.005637784
32	0x3d89540f	0.06705486
33	0x3da6d94d	0.081469156
34	0xbc30cd21	-0.010791094
35	0x3d4926f9	0.049109433
36	0xbd4b56a3	-0.04964317
37	0xbdd588c9	-0.1042648
38	0x3cc51180	0.024056196
39	0x3d9e3c43	0.07726338
40	0x3d465e32	0.048429675
41	0x3d7c016d	0.061524797
42	0xbd10ec0b	-0.035381358
43	0x3d79371c	0.060843572
44	0xbc896fa0	-0.01677686
45	0xba144858	-0.0005656532
46	0xbd2840ea	-0.041077532
47	0x3dc1fbb9	0.094718404
48	0xbd7d6602	-0.06186486
49	0x3d2c9328	0.042132527
50	0xbd8bc5f0	-0.06824863
51	0x3dbcf144	0.09225705
52	0x3d8584d2	0.06519474
53	0xbc98f0ff	-0.018669603
54	0xbcccbc84	-0.024992235
55	0x3d8a752a	0.067606285
56	0xbd854410	-0.065071225
57	0x3dac3111	0.08407796
58	0x3cdfb4c7	0.027307881
59	0x3d67e58a	0.05661539
60	0x3de4d11d	0.11172698
61	0xbd2a157f	-0.041524407
62	0xbd9ef681	-0.07761861
63	0xbd9bbad4	-0.07603994
64	0x3bd17bed	0.006392947
65	0x3dd8a193	0.10577693
66	0xbbcc580f	-0.0062360833
67	0x3d44d1ed	0.048051763
68	0x3d83065d	0.06397698
69	0x3bd91a60	0.0066254586
70	0x3c365d67	0.011130667
71	0x3cf9c1dd	0.030487949
72	0xbda2ede0	-0.07955527
73	0x3d7cd589	0.06172708
74	0x3dc1b5c4	0.09458497
75	0x3c3d9bf4	0.011572827
76	0x3decfc82	0.115715995
77	0xbba6036b	-0.0050663254
78	0xbdc4c2ac	-0.09607443
79	0xbcd347fe	-0.025791164
80	0x3cc9004e	0.024536278
81	0xbd83d00e	-0.06436168
82	0x3da05252	0.07828201
83	0xbd7ee878	-0.06223342
84	0x3d88e5a7	0.06684428
85	0xbd44a5db	-0.048009735
86	0x3cf3d1e0	0.029763162
87	0x3da3757e	0.07981394
88	0xbd0d1143	-0.03444029
89	0x3d3002fb	0.042971592
90	0x3dc61ecc	0.09673843
91	0x3bf20b95	0.0073866346
92	0xbd8471d4	-0.064670235
93	0xbb3b1b3b	-0.0028550166
94	0xbdf75947	-0.12077575
95	0xbd67054f	-0.056401547
96	0x3dbe9e7b	0.093075715
97	0x3d8a3afd	0.06749532
98	0xbdcae501	-0.0990696
99	0x3c8fd0ea	0.017555673
100	0x3ca80e6e	0.020514693
101	0xbdd67fc2	-0.104735866
102	0x3d23c249	0.039980207
103	0x3c8f43b8	0.017488346
104	0x3d048e9e	0.032362573
105	0x3d165f5e	0.036712043
106	0xbb07bea9	-0.0020713008
107	0x3dcc525d	0.09976647
108	0xbd8d7f1a	-0.06909008
109	0x3d6de557	0.058080044
110	0x3dc99a0b	0.098438345
111	0x3dc597db	0.09648105
112	0x3df6445f	0.120247595
113	0xbafaf2cc	-0.0019145845
114	0x3d611542	0.054951914
115	0x3df61ab0	0.12016809
116	0xbd62e3bf	-0.055392977
117	0x3d6cf636	0.057851993
118	0x3dd9010f	0.10595905
119	0x3dc9d24a	0.098545626
120	0x3cc7c378	0.024385199
121	0xbcb33c94	-0.021879472
122	0x3c0f43af	0.008744164
123	0xbab3afb7	-0.0013708983
124	0xbdc8f7c5	-0.09812883
125	0x3d6bf182	0.057603367
126	0xbc9be300	-0.01902914
127	0xbb810385	-0.003937187
128	0xbd661eca	-0.056181706
129	0xbd478602	-0.048711784
130	0xbc7ccf7f	-0.01543033
131	0x3dc2d8d3	0.09514012
132	0xbcb5dbe6	-0.022199582
133	0x3dc9001d	0.09814475
134	0x3da3d312	0.07999243
135	0xbdc8a345	-0.09796766
136	0xbdc5770a	-0.096418455
137	0x3da65439	0.08121533
138	0xbdf4c052	-0.11950745
139	0x3df550ff	0.119783394
140	0x3df293d9	0.11844606
141	0x3db980fd	0.09057806
142	0x3d94a1e1	0.072574385
143	0x3d80f197	0.062960796
144	0x3de414c4	0.11136773
145	0x3dbad90e	0.09123431
146	0xbd2afa4d	-0.04174261
147	0x3d0dfc8e	0.034664683
148	0x3c47ebe7	0.01220224
149	0x3d091af3	0.033472966
150	0x3d155fdf	0.036468383
151	0x3ce643d2	0.028108511
152	0xbd9532bb	-0.07285067
153	0xbde54d01	-0.11196328
154	0x3dab7b30	0.083731055
155	0x3d9a98bb	0.07548662
156	0x3d774350	0.06036693
157	0x3c17c73f	0.009263813
158	0x3d8665aa	0.0656236
159	0xbd1b20c6	-0.037873052
160	0x3d81fc17	0.063469104
161	0xbccf0fe7	-0.025276138
162	0xbd8dffc8	-0.06933552
163	0x3da84088	0.08215433
164	0x3c8f9fd4	0.017532267
165	0x3dddc5f5	0.10828773
166	0x3d1d1278	0.03834769
167	0x3d443f50	0.047911942
168	0x3d8a51ec	0.067539066
169	0x3ce4a19d	0.027909094
170	0xbd949d3d	-0.07256553
171	0x3dae2a79	0.08504195
172	0x3b019b3c	0.0019776365
173	0x3db7cdbc	0.089747876
174	0x3d90f4ca	0.0707794
175	0xbac74a05	-0.0015204555
176	0xbd964151	-0.07336677
177	0xbd09b214	-0.033617094
178	0xbd050f36	-0.03248521
179	0x3de55d46	0.11199431
180	0xbd4b7ffe	-0.04968261
181	0xbd1b7f8a	-0.037963428
182	0xbd86c774	-0.065810114
183	0xbd69ca86	-0.057077907
184	0x3de86599	0.11347503
185	0xbcb2d28b	-0.02182891
186	0x3d90f423	0.070778154
187	0x3dcbe765	0.099562444
188	0x3d067e5c	0.03283535
189	0xbdb26da9	-0.08712322
190	0x3cd24063	0.025665468
191	0xbc9f10e0	-0.019417226
192	0x3d640946	0.055672906
193	0xbcbe092e	-0.023197737
194	0xbd7cce1b	-0.061719995
195	0x3dbc27c5	0.09187273
196	0x3db171af	0.086642615
197	0xbcacdad4	-0.02110044
198	0x3da297d4	0.07939115
199	0x3d08abcd	0.033366967
200	0x3de88992	0.113543645
201	0xbd931148	-0.071810305
202	0xbd52fa52	-0.051508255
203	0xbd819088	-0.06326395
204	0xbdb9715e	-0.09054826
205	0xbd1ab10f	-0.037766512
206	0x3dbe7a0f	0.093006246
207	0x3b0e0596	0.002167081
208	0x3b2cff6b	0.0026397358
209	0xbccfd11d	-0.025368268
210	0x3da53fb3	0.0806879
211	0x3d63368c	0.05547194
212	0x3db9b81c	0.09068319
213	0x3d1ad562	0.037801154
214	0x3d13a47b	0.036045533
215	0x3d930ec7	0.07180553
216	0xbda69d97	-0.081355266
217	0x3da0ad1e	0.078455195
218	0x3d21392f	0.039361175
219	0x3c064d7f	0.008197187
220	0x3de03392	0.10947336
221	0xbdde2814	-0.10847488
222	0xbc7e1e05	-0.015510087
223	0x3d61f37b	0.05516384
224	0x3c8cd072	0.017189238
225	0x3d949122	0.072542444
226	0xbddfbc4f	-0.10924589
227	0xbdb927b2	-0.090407744
228	0xbd938446	-0.072029635
229	0xbdc48192	-0.09595026
230	0xbc9fa97f	-0.019490002
231	0xbd246962	-0.040139563
232	0x3da9b106	0.08285718
233	0x3c347457	0.011014066
234	0x3d603d23	0.054745805
235	0xbb9a2d78	-0.0047051273
236	0xbd286219	-0.04110918
237	0x3d433f9b	0.04766808
238	0x3da71186	0.08157639
239	0xbcdfd9f2	-0.027325604
240	0xbb6182f3	-0.0034410327
241	0xbd871af2	-0.06596936
242	0xbde50847	-0.111832194
243	0x3d2b9f45	0.041899938
244	0x3d5635e8	0.052297503
245	0x3d9609e5	0.07326106
246	0x3c6a1251	0.0142865935
247	0x3d5d6f03	0.054060947
248	0xbdaddd98	-0.08489531
249	0xbcc60b19	-0.024175214
250	0xbd64cf13	-0.055861544
251	0x3d785f59	0.060637806
252	0x3bcd8da3	0.006272988
253	0xbbf048a3	-0.0073328777
254	0xbc4c3879	-0.012464636
255	0xbcdbe703	-0.026843553

net.5.bias f4 [513]
0	0xbd540b15	-0.05176838
1	0x3c7c5925	0.015402113
2	0x3dd5af46	0.104338214
3	0x3e33031d	0.17481656
4	0xbcfce264	-0.03086967
5	0x3dd8b164	0.105807096
6	0x3e333f42	0.175046
7	0x3c90d09b	0.017677596
8	0xbcd3436c	-0.025788985
9	0x3e3c0213	0.18360166
10	0x3d701f08	0.058623344
11	0x3e177d0a	0.14793792
12	0x3e31b57b	0.17354386
13	0x3c93e493	0.018053329
14	0x3dc92746	0.09821944
15	0x3e4d4e34	0.20049363
16	0x3e0e7c56	0.13914618
17	0x3d59ee09	0.053205524
18	0x3e3ffae0	0.18748045
19	0xbd0d8b6b	-0.034556787
20	0x3c8b62e8	0.017014936
21	0xbc73d5ce	-0.014882518
22	0x3da80486	0.08203988
23	0x3e2ff86e	0.17184612
24	0x3e4a0a85	0.19730575
25	0x3de03beb	0.109489284
26	0x3d30d3e6	0.043170832
27	0x3c376eff	0.011195897
28	0x3db9bfe9	0.09069807
29	0x3ceb49ee	0.028721776
30	0x3de45303	0.11148646
31	0x3d9fb275	0.0779771
32	0x3e11e43f	0.14247225
33	0x3ce83611	0.028346093
34	0x3e499f3b	0.19689648
35	0x3d90dd85	0.070735015
36	0x3ce24440	0.027620435
37	0x3d61db0c	0.05514054
38	0xbd25c624	-0.040472165
39	0x3e37840b	0.17921464
40	0x3dd6562d	0.104656555
41	0x3da7ac07	0.081871085
42	0x3cb256df	0.021769939
43	0x3d91ef94	0.07125774
44	0x3de44b6f	0.111472
45	0xbcfb6de2	-0.030692045
46	0x3e168867	0.14700471
47	0x3dde2594	0.10847011
48	0x3d3073b7	0.043079104
49	0x3d1abe83	0.037779342
50	0x3e36f420	0.17866564
51	0x3d9a3eae	0.075314865
52	0x3dbac086	0.09118752
53	0x3e0deac1	0.13859083
54	0x3e21f31e	0.15815398
55	0xbcd8ed95	-0.026480475
56	0x3d4cf2fd	0.05003642
57	0x3e497bb1	0.19676091
58	0xbc00fe61	-0.007873149
59	0x3e423560	0.18965673
60	0x3dc767ae	0.09736572
61	0x3d44b66a	0.048025526
62	0x3e377c84	0.17918593
63	0x3cadf75f	0.02123612
64	0x3d48ef51	0.049056355
65	0xb81c8c45	-3.7323935e-05
66	0x3d51a69f	0.051184293
67	0xbc0ef387	-0.008725054
68	0x3e4c76ca	0.1996719
69	0x3d858b78	0.06520742
70	0x3e1761c9	0.14783396
71	0x3db13a7a	0.08653732
72	0x3d37f0d4	0.044907406
73	0x3cce4a9d	0.025182063
74	0x3df9bc71	0.121941455
75	0x3d6f12d8	0.05836758
76	0x3ceb846e	0.02874967
77	0x3dae67ee	0.08515917
78	0x3c0029fd	0.007822511
79	0x3cb25433	0.021768665
80	0x3cdd55e7	0.0270185
81	0x3df4681d	0.119339205
82	0x3df98497	0.12183493
83	0x3d2c22fc	0.04202555
84	0xbbd460e1	-0.0064812754
85	0x3e332352	0.17493942
86	0x3be30960	0.006928608
87	0x3dd778fa	0.10521121
88	0x3d943f7c	0.07238671
89	0x3d59039f	0.05298197
90	0x3dc9a825	0.09846524
91	0x3d724664	0.05914916
92	0x3e4d793b	0.20065777
93	0x3c94d7dd	0.018169338
94	0x3e0da8af	0.13833879
95	0x3e022f42	0.1271334
96	0x3ac1c717	0.0014784065
97	0x3e4deec0	0.20110607
98	0x3dc94abc	0.098287076
99	0x3e21db0f	0.1580622
100	0x3c45aaa3	0.012064609
101	0x3c823c6c	0.015897952
102	0x3de1ba24	0.11021832
103	0x3e39285e	0.18081805
104	0x3e53334d	0.20625038
105	0x3e26aa30	0.16275859
106	0x3d21ac24	0.039470807
107	0x3e45a110	0.19299722
108	0x3de60239	0.11230893
109	0x3d8288b7	0.063737325
110	0x3e28f851	0.16500975
111	0x3e1bff4d	0.15234108
112	0x3c542393	0.012947935
113	0x3d82c955	0.06386057
114	0xbcdabed8	-0.02670233
115	0x3e34ec1e	0.17668197
116	0x3e11abfe	0.14225766
117	0x3dba325e	0.09091638
118	0xba0430ec	-0.00050426903
119	0x3e50c842	0.20388892
120	0x3ddcbbe3	0.10778024
121	0x3e0a1900	0.13486099
122	0x3dd14ca9	0.102197
123	0x3e26c537	0.16286169
124	0x3e2f5205	0.17121132
125	0x3e340dfe	0.17583463
126	0x3e4ad365	0.19807203
127	0x3e14c916	0.14529833
128	0x3d1bef16	0.038069807
129	0xbc729ea4	-0.014808331
130	0x3d897c6c	0.06713185
131	0x3e0ea928	0.13931715
132	0xbc49e733	-0.012323189
133	0x3e0352f5	0.12824614
134	0x3d8314c3	0.06400444
135	0x3c46ec24	0.012141261
136	0x3d7d479e	0.061835878
137	0x3d2c40a4	0.042053834
138	0x3d74ae62	0.059736617
139	0x3e04f7f6	0.12985215
140	0x3dbd8e9f	0.092557184
141	0x3dd69cba	0.10479112
142	0xbc8cbbf7	-0.017179472
143	0x3e34f00e	0.17669699
144	0x3cc2f332	0.023797605
145	0x3da1b0cd	0.0789505
146	0x3e442127	0.19153272
147	0x3e209971	0.15683533
148	0xbc05c60f	-0.008164897
149	0x3e2dca56	0.16971716
150	0x3e10dd55	0.14146931
151	0xbcd1c267	-0.025605394
152	0x3d6b6674	0.057470754
153	0xbbe8c2ef	-0.007103316
154	0x3dfa0c0f	0.12209331
155	0x3e3402de	0.17579219
156	0xba10e554	-0.00055273366
157	0x3e27e472	0.16395739
158	0x3d22fd9d	0.039792646
159	0xbc4c054c	-0.012452435
160	0xbd10761f	-0.0352689
161	0x3e33afc0	0.17547512
162	0x3e15d61f	0.14632462
163	0x3bdc03d6	0.0067143245
164	0xbc6e463a	-0.0145431105
165	0x3e475a57	0.19468056
166	0xbc6ff1c8	-0.0146450475
167	0x3e34e9da	0.17667332
168	0x3e23bc03	0.1598969
169	0x3e07904f	0.13238643
170	0x3d755902	0.059899338
171	0x3d6d52c9	0.05794028
172	0x3e43568a	0.19075981
173	0xbc23803c	-0.009979304
174	0x3e0fee47	0.1405574
175	0x3dd9512a	0.10611184
176	0x3dba703e	0.0910344
177	0x3d92c9ab	0.07167371
178	0xbcb22f16	-0.021750968
179	0x3d16882e	0.036750965
180	0x3c99e4f6	0.018785935
181	0xbc45ed90	-0.012080565
182	0x3dd27d72	0.10277833
183	0x3e0b9653	0.13631563
184	0x3cd91e45	0.026503691
185	0x3c313496	0.01081576
186	0x3d273e34	0.040830806
187	0xbcb0ecd2	-0.0215973
188	0x3e1242ac	0.14283246
189	0x3e3bbf54	0.18334705
190	0x3e1b44a4	0.15162903
191	0xbca88878	-0.020572886
192	0x3de68b5f	0.11257052
193	0x3d2cd642	0.04219652
194	0x3c93fea8	0.018065766
195	0x3da0495f	0.078264944
196	0x3d796c74	0.060894445
197	0x3ca681d6	0.020325582
198	0x3e0faffb	0.14031975
199	0x3dae3ce1	0.085077055
200	0x3c4aa3ed	0.0123681845
201	0x3c22ad52	0.009929018
202	0x3de122ae	0.10992943
203	0x3dc02d94	0.09383693
204	0xbc1011b6	-0.008793285
205	0x3c2c903c	0.010532435
206	0x3c4f7ff4	0.012664784
207	0x3c81d262	0.015847389
208	0x3c6f7feb	0.0146179
209	0x3da8b1cc	0.08237037
210	0x3e17c65a	0.14821759
211	0x3e3bd482	0.18342784
212	0x3d004b65	0.0313219
213	0xbcb4d231	-0.022072883
214	0xbd039ff4	-0.032134965
215	0x3be48c18	0.0069747083
216	0x3c5a8f4b	0.013339828
217	0x3d91c701	0.07118035
218	0x3d8ddf89	0.069274016
219	0x3e3b5701	0.18294908
220	0x3e1a7ff0	0.15087867
221	0x3c7892eb	0.015171747
222	0x3dc898a7	0.09794741
223	0x3e445332	0.19172361
224	0x3cd7155c	0.026255302
225	0x3e1bd127	0.15216504
226	0x3dccd77b	0.10002037
227	0x3d8808bb	0.0664229
228	0x3de16036	0.11004679
229	0x3d9b8944	0.07594541
230	0x3ce91f63	0.02845735
231	0x3dfa4be0	0.12221503
232	0x3e231686	0.15926561
233	0x3cb87c99	0.02252035
234	0x3dd5f26c	0.10446629
235	0x3a959222	0.0011411349
236	0x3e3d1b4f	0.18467449
237	0x3cfaf917	0.030636353
238	0x3ca66379	0.020311104
239	0xbd04eea7	-0.03245416
240	0x3de12e9e	0.1099522
241	0x3def4ecc	0.11684951
242	0x3c57e8d9	0.013178074
243	0x3e367f6a	0.17822042
244	0x3dacf28a	0.08444698
245	0x3e4a8e48	0.19780838
246	0xbc221f65	-0.00989518
247	0xbd05c42f	-0.0326578
248	0x3e0df126	0.13861522
249	0xbc2d1e18	-0.010566257
250	0x3e413780	0.18868828
251	0x3dc58a0b	0.0964547
252	0xbc2813a9	-0.010258594
253	0x3b4fa2a3	0.0031682632
254	0x3cf01faf	0.029311983
255	0x3e44afe6	0.19207725
